app/static/model/landmark_model.tflite (tflite, 20904 bytes, 6 tensors)

arith.constant f4 [128]
0	0xbe1a88ec	-0.15091294
1	0x3c2c7fbd	0.010528502
2	0x3e72260c	0.23647326
3	0xbdce7805	-0.10081486
4	0xbdc00697	-0.09376257
5	0xbdab515c	-0.083651274
6	0xbdba91f2	-0.09109868
7	0xbe3ab6d7	-0.1823381
8	0xbda57522	-0.08078982
9	0x3cc598e8	0.024120763
10	0xbe43e468	-0.19130099
11	0xbd72c7ed	-0.059272695
12	0xbcc73d1b	-0.02432113
13	0x3db2b635	0.087261595
14	0xbe045688	-0.12923634
15	0xbdf49bf9	-0.11943812
16	0xbea0fbf9	-0.3144224
17	0x3e9ebfc5	0.31005684
18	0xbdc86db0	-0.09786546
19	0xbe677a0b	-0.2260515
20	0xbeb1dab6	-0.34737176
21	0xbe3052b6	-0.17219052
22	0x3db46522	0.08808352
23	0x3e6b0d88	0.2295438
24	0xbdadcc39	-0.08486218
25	0xbdb63b7e	-0.08898066
26	0xbe2bd18e	-0.16779158
27	0xbe3c9e40	-0.18419743
28	0xbd9503e7	-0.07276135
29	0xbda2f159	-0.0795619
30	0xbdf3fbc4	-0.11913255
31	0xbdac3161	-0.08407856
32	0xbdb6f763	-0.08933904
33	0xbc3c036c	-0.011475425
34	0xbe0149be	-0.12625787
35	0xbe841862	-0.25799853
36	0xbeab4359	-0.3344982
37	0xbdb5ad55	-0.08870951
38	0x3dcb898e	0.09938346
39	0xbdbc2376	-0.09186451
40	0xbda58043	-0.080811046
41	0xbd9c5dd9	-0.076350875
42	0x3d0f04cc	0.034916684
43	0xbe7ab783	-0.24484067
44	0x3d0f8842	0.035042055
45	0xbe1e7e98	-0.15477979
46	0xbbfdb540	-0.007742554
47	0xbdc906a7	-0.09815722
48	0xbe0d3df0	-0.13793159
49	0xbdcbc8e3	-0.099504255
50	0xbe30d32c	-0.17268056
51	0xbe8b4903	-0.2720414
52	0x3b999586	0.004687014
53	0xbd3ef5fe	-0.046621315
54	0xbd965fb7	-0.07342475
55	0xbdcfcfd7	-0.10147064
56	0xbd0f505b	-0.034988742
57	0xbe4c56ba	-0.19954959
58	0xbe2d5909	-0.16928495
59	0xbdd06198	-0.101748645
60	0x3d80b26e	0.06284033
61	0xbc5f72cd	-0.0136382105
62	0xbda478b9	-0.080308385
63	0x3cbeb2d6	0.023278635
64	0xbe514af2	-0.20438746
65	0xbdd3c092	-0.10339464
66	0xbded22c8	-0.115788996
67	0x3c82fadd	0.015988762
68	0xbe16da21	-0.14731647
69	0xbd4408e7	-0.047860052
70	0xbd30c74b	-0.04315881
71	0xbd92c918	-0.07167262
72	0xbe996f58	-0.2996776
73	0xbd164cee	-0.03669446
74	0xbe680880	-0.22659492
75	0xbdf52f47	-0.11971908
76	0xbea1ac18	-0.3157661
77	0xbe38678d	-0.18008251
78	0x3e0c1f88	0.13683903
79	0xbe9cd873	-0.30633888
80	0x3e9dcec4	0.30821812
81	0xbc7dc0ad	-0.015487832
82	0x3e7184c4	0.23585802
83	0xbe58242e	-0.21107551
84	0xbe716d2b	-0.235768
85	0xbcb39c99	-0.021925258
86	0xbdb3b7b4	-0.08775273
87	0xbd196e4f	-0.037458714
88	0xbb890582	-0.004181565
89	0xbde7691d	-0.11299346
90	0xbde287f6	-0.11061089
91	0xbe62ba24	-0.2214132
92	0xbe917922	-0.2841273
93	0xbe55883d	-0.20852752
94	0x3c15399e	0.009107975
95	0x3d2dcfe9	0.042434607
96	0x3d07f6b5	0.033194263
97	0xbe49c174	-0.19702703
98	0xbe0c329a	-0.13691178
99	0xbd900551	-0.07032264
100	0xbe63ad2e	-0.22234032
101	0x3eb10323	0.34572706
102	0xbd1f3e64	-0.03887786
103	0xbe1bbdca	-0.15209118
104	0x3d8be7cb	0.068313204
105	0xbe065e19	-0.13121833
106	0xbe33d704	-0.1756249
107	0xbe52a8e0	-0.20572233
108	0xbdc5bb34	-0.09654847
109	0xbd750243	-0.05981661
110	0xbcfb3f91	-0.03066996
111	0x3e17f677	0.14840113
112	0x3e63b38b	0.22236459
113	0x3d9e67ca	0.0773464
114	0xbe51c94e	-0.20486948
115	0xbd989da4	-0.074519426
116	0xbe9b4825	-0.3032848
117	0xbdb55d4c	-0.088556856
118	0xbe6d04fc	-0.23146433
119	0xbe82135a	-0.2540539
120	0xbe3b35e1	-0.18282272
121	0xbe026008	-0.12731946
122	0xbd42d82a	-0.04756943
123	0xbe1585a1	-0.14601757
124	0xbe3757b6	-0.17904553
125	0xbd72485d	-0.059151042
126	0xbe5dd571	-0.21663453
127	0x3d29757c	0.041371807

arith.constant1 f4 [64]
0	0x3e1b7c41	0.15184118
1	0x3ed7c63a	0.42143422
2	0x3e6b39e6	0.22971305
3	0x3e8c4e2e	0.27403396
4	0xbdc3732f	-0.09543454
5	0xbb9115c9	-0.004427646
6	0x3c717abd	0.014738736
7	0x3ebdc3ee	0.37063545
8	0x3ecc2b2b	0.39876685
9	0xbbbef049	-0.005826984
10	0x3c1f8982	0.009737374
11	0x3c6b43e6	0.01435945
12	0x3e92534d	0.28579178
13	0x3d266681	0.0406251
14	0x3e8f2676	0.2795903
15	0x3e0a8e3b	0.13530819
16	0x3f1cb99c	0.6122072
17	0x3ef679aa	0.48139697
18	0xbde216f1	-0.11039532
19	0x3d8b7390	0.06809151
20	0x3e81c077	0.25342152
21	0x3e3d46e9	0.18484081
22	0xbe23cb88	-0.1599561
23	0x3f08605a	0.5327202
24	0xbadaee3d	-0.0016703081
25	0x3e2bf98e	0.16794416
26	0x3cd95622	0.02653033
27	0x3eda94cc	0.42691648
28	0xbda7ad2b	-0.08187326
29	0x3dbdab5c	0.092612
30	0x3e2fab16	0.17155108
31	0xbe99674f	-0.2996163
32	0x3ec89a5a	0.3918026
33	0x3cb90c76	0.02258895
34	0x3e9b3e64	0.30321038
35	0x3c8e06fa	0.017337311
36	0xbd9aa83d	-0.0755162
37	0x3e33b4f5	0.17549498
38	0xbbec777f	-0.0072163935
39	0xbc1b6ac2	-0.009485902
40	0x3e9a5523	0.3014308
41	0xbe68a0bc	-0.22717565
42	0xbd80d911	-0.06291402
43	0xbe27e051	-0.16394164
44	0x3e941ea8	0.2892964
45	0x3e716dd6	0.23577055
46	0x3e8de620	0.27714634
47	0xbcad8dda	-0.021185804
48	0x3e3dd66e	0.1853883
49	0x3e168793	0.14700155
50	0xbd8508ac	-0.06495795
51	0xbca6d19f	-0.020363627
52	0x3eaff054	0.34363043
53	0xbd882b48	-0.0664888
54	0xbe41676d	-0.1888711
55	0xbdd1329a	-0.102147296
56	0x3d328bf3	0.043590497
57	0xbcde44b0	-0.027132362
58	0xbdc3b2b2	-0.09555568
59	0x3efeeed7	0.49791595
60	0x3ebe49f7	0.37165806
61	0x3ecf2949	0.40461186
62	0x3d5a529d	0.053301442
63	0xbd8b5f43	-0.06805279

arith.constant2 f4 [26]
0	0x3e7fae0a	0.24968734
1	0x3e87878d	0.26470605
2	0xbeb2e323	-0.34938917
3	0xbcc7ef79	-0.024406182
4	0x3e8fafa0	0.2806368
5	0xbe71b7ad	-0.23605223
6	0xbe9618b7	-0.2931573
7	0x3e24f724	0.16109902
8	0xbdb3bcbc	-0.087762326
9	0xbecbf714	-0.39836943
10	0xbe0c7761	-0.13717414
11	0xbed531d1	-0.4163957
12	0xbd31bf99	-0.043395612
13	0x3d9753c5	0.07389025
14	0x3dea8763	0.11451604
15	0xbd891c7b	-0.06694885
16	0xbdb30070	-0.08740318
17	0x3d428823	0.04749311
18	0x3e6e926c	0.23298043
19	0x3f027e9a	0.5097443
20	0x3e815333	0.25258788
21	0xbed9cf61	-0.4254103
22	0xbf4d5b13	-0.80217093
23	0x3e3d8d18	0.18510854
24	0xbe8a7f87	-0.2705042
25	0x3ec26ac8	0.37972093

tfl.pseudo_qconst i1 [26, 64]
0	0x16	22
1	0xf0	-16
2	0x19	25
3	0x11	17
4	0x1c	28
5	0x17	23
6	0xcd	-51
7	0xbc	-68
8	0xc5	-59
9	0xfa	-6
10	0x8e	-114
11	0xca	-54
12	0x12	18
13	0x17	23
14	0xd3	-45
15	0xba	-70
16	0xff	-1
17	0x17	23
18	0xe8	-24
19	0xfb	-5
20	0x12	18
21	0xbd	-67
22	0x09	9
23	0xcd	-51
24	0x0d	13
25	0x13	19
26	0xef	-17
27	0xa9	-87
28	0x1a	26
29	0x1a	26
30	0xc1	-63
31	0xf1	-15
32	0x91	-111
33	0xd0	-48
34	0x16	22
35	0x16	22
36	0xd0	-48
37	0xfa	-6
38	0x0c	12
39	0xa2	-94
40	0xe6	-26
41	0xff	-1
42	0x02	2
43	0xd4	-44
44	0x81	-127
45	0x0d	13
46	0xf4	-12
47	0xd4	-44
48	0x12	18
49	0xce	-50
50	0x03	3
51	0xdc	-36
52	0x17	23
53	0xfd	-3
54	0xac	-84
55	0xd8	-40
56	0xda	-38
57	0xe0	-32
58	0x13	19
59	0x0c	12
60	0x15	21
61	0xa9	-87
62	0x99	-103
63	0xcd	-51
64	0x1b	27
65	0xf7	-9
66	0x15	21
67	0xa5	-91
68	0xd2	-46
69	0xea	-22
70	0xfe	-2
71	0x19	25
72	0xac	-84
73	0x11	17
74	0xda	-38
75	0xbd	-67
76	0x82	-126
77	0x81	-127
78	0x13	19
79	0x15	21
80	0x10	16
81	0x07	7
82	0x13	19
83	0xe4	-28
84	0xbc	-68
85	0x0f	15
86	0x01	1
87	0x01	1
88	0xa6	-90
89	0x1e	30
90	0x9b	-101
91	0x1f	31
92	0x0c	12
93	0x13	19
94	0x0b	11
95	0x13	19
96	0x1a	26
97	0x13	19
98	0xcd	-51
99	0xc6	-58
100	0xe8	-24
101	0x13	19
102	0x15	21
103	0x0a	10
104	0x0b	11
105	0xbd	-67
106	0xd5	-43
107	0xc4	-60
108	0x10	16
109	0xb9	-71
110	0xd0	-48
111	0x17	23
112	0xab	-85
113	0xe4	-28
114	0xe3	-29
115	0xcf	-49
116	0xc0	-64
117	0x17	23
118	0xc0	-64
119	0xf7	-9
120	0xf5	-11
121	0x9c	-100
122	0xa5	-91
123	0x87	-121
124	0xd6	-42
125	0xd9	-39
126	0x10	16
127	0xfe	-2
128	0xe6	-26
129	0x05	5
130	0x07	7
131	0xab	-85
132	0x12	18
133	0xf0	-16
134	0x12	18
135	0xfe	-2
136	0xbf	-65
137	0x14	20
138	0x12	18
139	0x08	8
140	0xd8	-40
141	0x15	21
142	0xbb	-69
143	0xfe	-2
144	0x01	1
145	0xda	-38
146	0x11	17
147	0xc0	-64
148	0xd5	-43
149	0x0a	10
150	0x04	4
151	0xb9	-71
152	0x07	7
153	0xea	-22
154	0xd9	-39
155	0xd9	-39
156	0x11	17
157	0x15	21
158	0x0a	10
159	0x1b	27
160	0xf5	-11
161	0x10	16
162	0xdc	-36
163	0xdb	-37
164	0xf4	-12
165	0x0a	10
166	0x13	19
167	0x14	20
168	0xaa	-86
169	0x10	16
170	0xbd	-67
171	0xde	-34
172	0xec	-20
173	0xce	-50
174	0xe8	-24
175	0x14	20
176	0xc5	-59
177	0x02	2
178	0x03	3
179	0xc3	-61
180	0xe4	-28
181	0xff	-1
182	0x0e	14
183	0x22	34
184	0xea	-22
185	0x16	22
186	0x00	0
187	0x81	-127
188	0xbf	-65
189	0xe3	-29
190	0x0d	13
191	0x10	16
192	0xb5	-75
193	0x0f	15
194	0xa3	-93
195	0x81	-127
196	0xd2	-46
197	0xbf	-65
198	0x15	21
199	0xe8	-24
200	0xc5	-59
201	0x0a	10
202	0x11	17
203	0xf9	-7
204	0x00	0
205	0x0f	15
206	0xda	-38
207	0x09	9
208	0x0f	15
209	0x07	7
210	0xc1	-63
211	0xa5	-91
212	0xec	-20
213	0x0f	15
214	0x95	-107
215	0x13	19
216	0x0d	13
217	0xcc	-52
218	0xf1	-15
219	0x21	33
220	0xb4	-76
221	0xfa	-6
222	0x9e	-98
223	0x0e	14
224	0x20	32
225	0xf8	-8
226	0xaa	-86
227	0x19	25
228	0xfc	-4
229	0xbe	-66
230	0x15	21
231	0x14	20
232	0x05	5
233	0xf0	-16
234	0xaf	-81
235	0xe0	-32
236	0xff	-1
237	0x0f	15
238	0x02	2
239	0x14	20
240	0x93	-109
241	0x1a	26
242	0x08	8
243	0xcc	-52
244	0xaa	-86
245	0xc5	-59
246	0x15	21
247	0x26	38
248	0xba	-70
249	0x07	7
250	0xd7	-41
251	0xb6	-74
252	0xe4	-28
253	0xfe	-2
254	0x19	25
255	0x15	21

tfl.pseudo_qconst1 i1 [64, 128]
0	0x25	37
1	0xfa	-6
2	0x08	8
3	0x02	2
4	0x0c	12
5	0xb6	-74
6	0xf5	-11
7	0x1a	26
8	0xef	-17
9	0x22	34
10	0x11	17
11	0xbd	-67
12	0xcc	-52
13	0xf2	-14
14	0x2d	45
15	0xde	-34
16	0xe8	-24
17	0xea	-22
18	0x01	1
19	0xed	-19
20	0x18	24
21	0x1c	28
22	0x32	50
23	0xfb	-5
24	0x17	23
25	0x21	33
26	0xf5	-11
27	0x09	9
28	0xf7	-9
29	0x5b	91
30	0xed	-19
31	0xff	-1
32	0xe4	-28
33	0x13	19
34	0xdf	-33
35	0xbc	-68
36	0xb8	-72
37	0xf3	-13
38	0xf3	-13
39	0x16	22
40	0x22	34
41	0xfe	-2
42	0x09	9
43	0xd9	-39
44	0x36	54
45	0x08	8
46	0x1a	26
47	0xf2	-14
48	0x16	22
49	0x13	19
50	0x0a	10
51	0xf9	-7
52	0x42	66
53	0x61	97
54	0x15	21
55	0x0c	12
56	0xb1	-79
57	0xe2	-30
58	0x3b	59
59	0xe7	-25
60	0xcc	-52
61	0x81	-127
62	0x18	24
63	0x17	23
64	0xdc	-36
65	0xf2	-14
66	0x16	22
67	0xed	-19
68	0x15	21
69	0xd9	-39
70	0xb8	-72
71	0x30	48
72	0x01	1
73	0x05	5
74	0xf5	-11
75	0xf8	-8
76	0xef	-17
77	0xf5	-11
78	0xfa	-6
79	0xf9	-7
80	0xe5	-27
81	0xdf	-33
82	0x14	20
83	0x92	-110
84	0xe6	-26
85	0xbe	-66
86	0xc0	-64
87	0xea	-22
88	0xf2	-14
89	0xe6	-26
90	0x4c	76
91	0xf4	-12
92	0xe1	-31
93	0xf3	-13
94	0x07	7
95	0x0d	13
96	0x0d	13
97	0x00	0
98	0x03	3
99	0xe5	-27
100	0x1a	26
101	0x0a	10
102	0x10	16
103	0xd8	-40
104	0xf7	-9
105	0xc2	-62
106	0x13	19
107	0xf9	-7
108	0xef	-17
109	0x02	2
110	0xc3	-61
111	0xeb	-21
112	0x05	5
113	0x0e	14
114	0x15	21
115	0x1c	28
116	0xf5	-11
117	0x12	18
118	0x02	2
119	0x02	2
120	0xee	-18
121	0x29	41
122	0xff	-1
123	0x08	8
124	0xfd	-3
125	0x14	20
126	0x1d	29
127	0x0c	12
128	0xf8	-8
129	0xee	-18
130	0x52	82
131	0xf7	-9
132	0xfb	-5
133	0xf0	-16
134	0xec	-20
135	0x16	22
136	0xfb	-5
137	0xcf	-49
138	0xd8	-40
139	0x5c	92
140	0x63	99
141	0x09	9
142	0x13	19
143	0xfd	-3
144	0xff	-1
145	0xe8	-24
146	0xf4	-12
147	0xee	-18
148	0x00	0
149	0xea	-22
150	0x08	8
151	0xd8	-40
152	0x01	1
153	0x10	16
154	0x08	8
155	0xe9	-23
156	0x1d	29
157	0xe9	-23
158	0x07	7
159	0x0a	10
160	0x44	68
161	0x22	34
162	0x22	34
163	0x0a	10
164	0x13	19
165	0xc5	-59
166	0x03	3
167	0xd5	-43
168	0x24	36
169	0xf2	-14
170	0xfb	-5
171	0x0e	14
172	0x0c	12
173	0x17	23
174	0xe3	-29
175	0x0f	15
176	0x13	19
177	0x10	16
178	0xe0	-32
179	0xed	-19
180	0xfa	-6
181	0xd5	-43
182	0xf9	-7
183	0x03	3
184	0xfc	-4
185	0x00	0
186	0x19	25
187	0x40	64
188	0x10	16
189	0x0d	13
190	0x02	2
191	0xf7	-9
192	0xf5	-11
193	0x10	16
194	0xf7	-9
195	0xf8	-8
196	0x06	6
197	0xf3	-13
198	0x81	-127
199	0xfb	-5
200	0xdb	-37
201	0x11	17
202	0xf4	-12
203	0x05	5
204	0x11	17
205	0x08	8
206	0xea	-22
207	0xff	-1
208	0x00	0
209	0x0f	15
210	0x0a	10
211	0x13	19
212	0xfd	-3
213	0x17	23
214	0x02	2
215	0x33	51
216	0x2c	44
217	0xd8	-40
218	0xe2	-30
219	0xf9	-7
220	0x14	20
221	0x07	7
222	0xfd	-3
223	0x25	37
224	0x01	1
225	0x23	35
226	0x75	117
227	0x0f	15
228	0xf7	-9
229	0xfd	-3
230	0xfa	-6
231	0xed	-19
232	0xec	-20
233	0x0a	10
234	0x05	5
235	0xfc	-4
236	0xf8	-8
237	0x25	37
238	0xd6	-42
239	0xd5	-43
240	0xf9	-7
241	0xec	-20
242	0xf9	-7
243	0xd1	-47
244	0xff	-1
245	0xfc	-4
246	0xf9	-7
247	0x01	1
248	0x07	7
249	0xee	-18
250	0x0b	11
251	0x08	8
252	0xfc	-4
253	0xe6	-26
254	0xf1	-15
255	0xec	-20

sequential_1/dense_1/MatMul i1 [128, 42]
0	0xdd	-35
1	0xed	-19
2	0x3a	58
3	0x3f	63
4	0xf1	-15
5	0xd1	-47
6	0x02	2
7	0x8c	-116
8	0x0c	12
9	0x81	-127
10	0x28	40
11	0x3e	62
12	0xf8	-8
13	0x2e	46
14	0xf7	-9
15	0x4a	74
16	0xbf	-65
17	0x1d	29
18	0x3e	62
19	0x13	19
20	0x10	16
21	0x05	5
22	0x22	34
23	0xe0	-32
24	0xf1	-15
25	0x87	-121
26	0x07	7
27	0xda	-38
28	0xef	-17
29	0x27	39
30	0xe3	-29
31	0x45	69
32	0x07	7
33	0xc6	-58
34	0x01	1
35	0x06	6
36	0x1b	27
37	0x15	21
38	0x20	32
39	0x30	48
40	0xf8	-8
41	0xca	-54
42	0x28	40
43	0x13	19
44	0x07	7
45	0x0e	14
46	0xce	-50
47	0x53	83
48	0xd5	-43
49	0x69	105
50	0x22	34
51	0x49	73
52	0x64	100
53	0xdc	-36
54	0xdd	-35
55	0x26	38
56	0xe5	-27
57	0x0f	15
58	0xed	-19
59	0x3b	59
60	0x7f	127
61	0xb6	-74
62	0xfa	-6
63	0x4c	76
64	0x04	4
65	0x37	55
66	0xc7	-57
67	0xbb	-69
68	0x61	97
69	0x02	2
70	0x19	25
71	0x0d	13
72	0xc0	-64
73	0x4f	79
74	0xc2	-62
75	0x07	7
76	0x64	100
77	0xd5	-43
78	0x23	35
79	0x36	54
80	0x24	36
81	0x40	64
82	0xb1	-79
83	0x73	115
84	0x02	2
85	0xfe	-2
86	0x00	0
87	0x5b	91
88	0xf5	-11
89	0x0f	15
90	0xfd	-3
91	0xeb	-21
92	0x28	40
93	0xe0	-32
94	0xf5	-11
95	0x04	4
96	0x09	9
97	0x3b	59
98	0xdb	-37
99	0xd6	-42
100	0xd8	-40
101	0x81	-127
102	0x20	32
103	0xfe	-2
104	0xe4	-28
105	0x17	23
106	0x09	9
107	0x51	81
108	0x3a	58
109	0x66	102
110	0xea	-22
111	0xf5	-11
112	0xd7	-41
113	0x21	33
114	0x1a	26
115	0x1c	28
116	0xf6	-10
117	0xff	-1
118	0x0d	13
119	0x35	53
120	0xfd	-3
121	0xfa	-6
122	0x0c	12
123	0xb7	-73
124	0x19	25
125	0xc1	-63
126	0x00	0
127	0xe8	-24
128	0x29	41
129	0xf4	-12
130	0xda	-38
131	0xfe	-2
132	0x1d	29
133	0x03	3
134	0x7f	127
135	0xc9	-55
136	0x46	70
137	0xfc	-4
138	0x36	54
139	0xe6	-26
140	0xc7	-57
141	0x0d	13
142	0x9e	-98
143	0x2b	43
144	0x3f	63
145	0x00	0
146	0xe2	-30
147	0x1e	30
148	0xc3	-61
149	0x15	21
150	0x05	5
151	0x1b	27
152	0x0f	15
153	0x07	7
154	0xbf	-65
155	0x1c	28
156	0xd6	-42
157	0x03	3
158	0x19	25
159	0xdf	-33
160	0x27	39
161	0xd4	-44
162	0xcd	-51
163	0xe6	-26
164	0xd4	-44
165	0xfc	-4
166	0xb0	-80
167	0x25	37
168	0xdf	-33
169	0x26	38
170	0x14	20
171	0xd0	-48
172	0x19	25
173	0xd9	-39
174	0xe0	-32
175	0xd5	-43
176	0xdb	-37
177	0xbc	-68
178	0xe2	-30
179	0x29	41
180	0x18	24
181	0xef	-17
182	0x14	20
183	0xfc	-4
184	0x5d	93
185	0x5c	92
186	0xd6	-42
187	0xc2	-62
188	0x1f	31
189	0xf8	-8
190	0xb8	-72
191	0xff	-1
192	0xf9	-7
193	0xe7	-25
194	0xce	-50
195	0xe8	-24
196	0x00	0
197	0xfd	-3
198	0xe9	-23
199	0xdf	-33
200	0xd0	-48
201	0x02	2
202	0x13	19
203	0xaf	-81
204	0x18	24
205	0xd2	-46
206	0xf3	-13
207	0x5a	90
208	0x3b	59
209	0x7f	127
210	0xdd	-35
211	0xea	-22
212	0xcb	-53
213	0xf9	-7
214	0xf2	-14
215	0x04	4
216	0xe8	-24
217	0x39	57
218	0x32	50
219	0x43	67
220	0xf3	-13
221	0x13	19
222	0x23	35
223	0xf8	-8
224	0xed	-19
225	0x25	37
226	0x11	17
227	0x07	7
228	0xf9	-7
229	0xe2	-30
230	0xe4	-28
231	0xd8	-40
232	0x00	0
233	0x30	48
234	0x1e	30
235	0x0a	10
236	0x0c	12
237	0xea	-22
238	0xde	-34
239	0x9d	-99
240	0xfb	-5
241	0x81	-127
242	0xe5	-27
243	0x9f	-97
244	0xdb	-37
245	0x14	20
246	0x0d	13
247	0x09	9
248	0x07	7
249	0x4a	74
250	0x2b	43
251	0x4f	79
252	0x17	23
253	0x19	25
254	0xe4	-28
255	0xcb	-53
